…
==>>[2022-07-16 17:33:13] [Epoch=003/030] [Need: 00:07:29] [learning_rate=0.1000] [Best : Accuracy=77.67, Error=22.33]

==>>[2022-07-16 17:34:45] [Epoch=009/030] [Need: 00:05:32] [learning_rate=0.1000] [Best : Accuracy=80.94, Error=19.06]

==>>[2022-07-16 17:36:18] [Epoch=015/030] [Need: 00:03:54] [learning_rate=0.1000] [Best : Accuracy=81.56, Error=18.44]

==>>[2022-07-16 17:36:49] [Epoch=017/030] [Need: 00:03:23] [learning_rate=0.1000] [Best : Accuracy=84.34, Error=15.66]

==>>[2022-07-16 17:38:37] [Epoch=024/030] [Need: 00:01:33] [learning_rate=0.1000] [Best : Accuracy=84.87, Error=15.13]
=> network before pruning:
 vgg(
  (feature): Sequential(
    (0): Conv2d(3, 64, kernel_size=(3, 3), stride=(1, 1), padding=(1, 1), bias=False)
    (1): BatchNorm2d(64, eps=1e-05, momentum=0.1, affine=True, track_running_stats=True)
    (2): ReLU(inplace=True)
    (3): Conv2d(64, 64, kernel_size=(3, 3), stride=(1, 1), padding=(1, 1), bias=False)
    (4): BatchNorm2d(64, eps=1e-05, momentum=0.1, affine=True, track_running_stats=True)
    (5): ReLU(inplace=True)
    (6): MaxPool2d(kernel_size=2, stride=2, padding=0, dilation=1, ceil_mode=False)
    (7): Conv2d(64, 128, kernel_size=(3, 3), stride=(1, 1), padding=(1, 1), bias=False)
    (8): BatchNorm2d(128, eps=1e-05, momentum=0.1, affine=True, track_running_stats=True)
    (9): ReLU(inplace=True)
    (10): Conv2d(128, 128, kernel_size=(3, 3), stride=(1, 1), padding=(1, 1), bias=False)
    (11): BatchNorm2d(128, eps=1e-05, momentum=0.1, affine=True, track_running_stats=True)
    (12): ReLU(inplace=True)
    (13): MaxPool2d(kernel_size=2, stride=2, padding=0, dilation=1, ceil_mode=False)
    (14): Conv2d(128, 256, kernel_size=(3, 3), stride=(1, 1), padding=(1, 1), bias=False)
    (15): BatchNorm2d(256, eps=1e-05, momentum=0.1, affine=True, track_running_stats=True)
    (16): ReLU(inplace=True)
    (17): Conv2d(256, 256, kernel_size=(3, 3), stride=(1, 1), padding=(1, 1), bias=False)
    (18): BatchNorm2d(256, eps=1e-05, momentum=0.1, affine=True, track_running_stats=True)
    (19): ReLU(inplace=True)
    (20): Conv2d(256, 256, kernel_size=(3, 3), stride=(1, 1), padding=(1, 1), bias=False)
    (21): BatchNorm2d(256, eps=1e-05, momentum=0.1, affine=True, track_running_stats=True)
    (22): ReLU(inplace=True)
    (23): MaxPool2d(kernel_size=2, stride=2, padding=0, dilation=1, ceil_mode=False)
    (24): Conv2d(256, 512, kernel_size=(3, 3), stride=(1, 1), padding=(1, 1), bias=False)
    (25): BatchNorm2d(512, eps=1e-05, momentum=0.1, affine=True, track_running_stats=True)
    (26): ReLU(inplace=True)
    (27): Conv2d(512, 512, kernel_size=(3, 3), stride=(1, 1), padding=(1, 1), bias=False)
    (28): BatchNorm2d(512, eps=1e-05, momentum=0.1, affine=True, track_running_stats=True)
    (29): ReLU(inplace=True)
    (30): Conv2d(512, 512, kernel_size=(3, 3), stride=(1, 1), padding=(1, 1), bias=False)
    (31): BatchNorm2d(512, eps=1e-05, momentum=0.1, affine=True, track_running_stats=True)
    (32): ReLU(inplace=True)
    (33): MaxPool2d(kernel_size=2, stride=2, padding=0, dilation=1, ceil_mode=False)
    (34): Conv2d(512, 512, kernel_size=(3, 3), stride=(1, 1), padding=(1, 1), bias=False)
    (35): BatchNorm2d(512, eps=1e-05, momentum=0.1, affine=True, track_running_stats=True)
    (36): ReLU(inplace=True)
    (37): Conv2d(512, 512, kernel_size=(3, 3), stride=(1, 1), padding=(1, 1), bias=False)
    (38): BatchNorm2d(512, eps=1e-05, momentum=0.1, affine=True, track_running_stats=True)
    (39): ReLU(inplace=True)
    (40): Conv2d(512, 512, kernel_size=(3, 3), stride=(1, 1), padding=(1, 1), bias=False)
    (41): BatchNorm2d(512, eps=1e-05, momentum=0.1, affine=True, track_running_stats=True)
    (42): ReLU(inplace=True)
  )
  (classifier): Sequential(
    (0): Linear(in_features=512, out_features=512, bias=True)
    (1): BatchNorm1d(512, eps=1e-05, momentum=0.1, affine=True, track_running_stats=True)
    (2): ReLU(inplace=True)
    (3): Linear(in_features=512, out_features=10, bias=True)
  )
)
Baseline Model Flops: 626927616.000000

==>>[2022-07-16 17:41:05] [Epoch=030/033] [Need: 00:00:00] [learning_rate=0.1000] [Best : Accuracy=77.68, Error=22.32]

==>>[2022-07-16 17:41:36] [Epoch=032/033] [Need: 00:00:15] [learning_rate=0.1000] [Best : Accuracy=83.58, Error=16.42]

==>>[2022-07-16 17:43:06] [Epoch=030/033] [Need: 00:00:00] [learning_rate=0.1000] [Best : Accuracy=84.54, Error=15.46]
…
Prune Stats: {'l1norm': 281, 'l2norm': 188, 'eucl': 474, 'cos': 844}
Final Flop Reduction Rate: 0.6028
Conv Filters Before Pruning: {2: 64, 5: 64, 9: 128, 12: 128, 16: 256, 19: 256, 22: 256, 26: 512, 29: 512, 32: 512, 36: 512, 39: 512, 42: 512}
Conv Filters After Pruning: {2: 47, 5: 31, 9: 103, 12: 103, 16: 186, 19: 186, 22: 186, 26: 144, 29: 302, 32: 160, 36: 415, 39: 302, 42: 272}
Layerwise Pruning Rate: {2: 0.265625, 5: 0.515625, 9: 0.1953125, 12: 0.1953125, 16: 0.2734375, 19: 0.2734375, 22: 0.2734375, 26: 0.71875, 29: 0.41015625, 32: 0.6875, 36: 0.189453125, 39: 0.41015625, 42: 0.46875}
=> network after pruning:
 vgg(
  (feature): Sequential(
    (0): Conv2d(3, 47, kernel_size=(3, 3), stride=(1, 1), padding=(1, 1), bias=False)
    (1): BatchNorm2d(47, eps=1e-05, momentum=0.1, affine=True, track_running_stats=True)
    (2): ReLU(inplace=True)
    (3): Conv2d(47, 31, kernel_size=(3, 3), stride=(1, 1), padding=(1, 1), bias=False)
    (4): BatchNorm2d(31, eps=1e-05, momentum=0.1, affine=True, track_running_stats=True)
    (5): ReLU(inplace=True)
    (6): MaxPool2d(kernel_size=2, stride=2, padding=0, dilation=1, ceil_mode=False)
    (7): Conv2d(31, 103, kernel_size=(3, 3), stride=(1, 1), padding=(1, 1), bias=False)
    (8): BatchNorm2d(103, eps=1e-05, momentum=0.1, affine=True, track_running_stats=True)
    (9): ReLU(inplace=True)
    (10): Conv2d(103, 103, kernel_size=(3, 3), stride=(1, 1), padding=(1, 1), bias=False)
    (11): BatchNorm2d(103, eps=1e-05, momentum=0.1, affine=True, track_running_stats=True)
    (12): ReLU(inplace=True)
    (13): MaxPool2d(kernel_size=2, stride=2, padding=0, dilation=1, ceil_mode=False)
    (14): Conv2d(103, 186, kernel_size=(3, 3), stride=(1, 1), padding=(1, 1), bias=False)
    (15): BatchNorm2d(186, eps=1e-05, momentum=0.1, affine=True, track_running_stats=True)
    (16): ReLU(inplace=True)
    (17): Conv2d(186, 186, kernel_size=(3, 3), stride=(1, 1), padding=(1, 1), bias=False)
    (18): BatchNorm2d(186, eps=1e-05, momentum=0.1, affine=True, track_running_stats=True)
    (19): ReLU(inplace=True)
    (20): Conv2d(186, 186, kernel_size=(3, 3), stride=(1, 1), padding=(1, 1), bias=False)
    (21): BatchNorm2d(186, eps=1e-05, momentum=0.1, affine=True, track_running_stats=True)
    (22): ReLU(inplace=True)
    (23): MaxPool2d(kernel_size=2, stride=2, padding=0, dilation=1, ceil_mode=False)
    (24): Conv2d(186, 144, kernel_size=(3, 3), stride=(1, 1), padding=(1, 1), bias=False)
    (25): BatchNorm2d(144, eps=1e-05, momentum=0.1, affine=True, track_running_stats=True)
    (26): ReLU(inplace=True)
    (27): Conv2d(144, 302, kernel_size=(3, 3), stride=(1, 1), padding=(1, 1), bias=False)
    (28): BatchNorm2d(302, eps=1e-05, momentum=0.1, affine=True, track_running_stats=True)
    (29): ReLU(inplace=True)
    (30): Conv2d(302, 160, kernel_size=(3, 3), stride=(1, 1), padding=(1, 1), bias=False)
    (31): BatchNorm2d(160, eps=1e-05, momentum=0.1, affine=True, track_running_stats=True)
    (32): ReLU(inplace=True)
    (33): MaxPool2d(kernel_size=2, stride=2, padding=0, dilation=1, ceil_mode=False)
    (34): Conv2d(160, 415, kernel_size=(3, 3), stride=(1, 1), padding=(1, 1), bias=False)
    (35): BatchNorm2d(415, eps=1e-05, momentum=0.1, affine=True, track_running_stats=True)
    (36): ReLU(inplace=True)
    (37): Conv2d(415, 302, kernel_size=(3, 3), stride=(1, 1), padding=(1, 1), bias=False)
    (38): BatchNorm2d(302, eps=1e-05, momentum=0.1, affine=True, track_running_stats=True)
    (39): ReLU(inplace=True)
    (40): Conv2d(302, 272, kernel_size=(3, 3), stride=(1, 1), padding=(1, 1), bias=False)
    (41): BatchNorm2d(272, eps=1e-05, momentum=0.1, affine=True, track_running_stats=True)
    (42): ReLU(inplace=True)
  )
  (classifier): Sequential(
    (0): Linear(in_features=272, out_features=512, bias=True)
    (1): BatchNorm1d(512, eps=1e-05, momentum=0.1, affine=True, track_running_stats=True)
    (2): ReLU(inplace=True)
    (3): Linear(in_features=512, out_features=10, bias=True)
  )
)

==>>[2022-07-16 18:11:07] [Epoch=030/160] [Need: 00:00:00] [learning_rate=0.1000] [Best : Accuracy=82.56, Error=17.44]

==>>[2022-07-16 18:12:09] [Epoch=034/160] [Need: 00:32:20] [learning_rate=0.1000] [Best : Accuracy=85.27, Error=14.73]

==>>[2022-07-16 18:12:40] [Epoch=036/160] [Need: 00:31:52] [learning_rate=0.1000] [Best : Accuracy=86.32, Error=13.68]
…
