…
==>>[2022-07-16 04:56:15] [Epoch=010/030] [Need: 00:06:44] [learning_rate=0.1000] [Best : Accuracy=83.00, Error=17.00]

==>>[2022-07-16 04:56:35] [Epoch=011/030] [Need: 00:06:23] [learning_rate=0.1000] [Best : Accuracy=83.10, Error=16.90]

==>>[2022-07-16 04:56:55] [Epoch=012/030] [Need: 00:06:02] [learning_rate=0.1000] [Best : Accuracy=85.31, Error=14.69]

==>>[2022-07-16 04:59:53] [Epoch=021/030] [Need: 00:02:59] [learning_rate=0.1000] [Best : Accuracy=85.75, Error=14.25]

==>>[2022-07-16 05:02:31] [Epoch=029/030] [Need: 00:00:19] [learning_rate=0.1000] [Best : Accuracy=86.66, Error=13.34]
=> network before pruning:
 vgg(
  (feature): Sequential(
    (0): Conv2d(3, 64, kernel_size=(3, 3), stride=(1, 1), padding=(1, 1), bias=False)
    (1): BatchNorm2d(64, eps=1e-05, momentum=0.1, affine=True, track_running_stats=True)
    (2): ReLU(inplace=True)
    (3): Conv2d(64, 64, kernel_size=(3, 3), stride=(1, 1), padding=(1, 1), bias=False)
    (4): BatchNorm2d(64, eps=1e-05, momentum=0.1, affine=True, track_running_stats=True)
    (5): ReLU(inplace=True)
    (6): MaxPool2d(kernel_size=2, stride=2, padding=0, dilation=1, ceil_mode=False)
    (7): Conv2d(64, 128, kernel_size=(3, 3), stride=(1, 1), padding=(1, 1), bias=False)
    (8): BatchNorm2d(128, eps=1e-05, momentum=0.1, affine=True, track_running_stats=True)
    (9): ReLU(inplace=True)
    (10): Conv2d(128, 128, kernel_size=(3, 3), stride=(1, 1), padding=(1, 1), bias=False)
    (11): BatchNorm2d(128, eps=1e-05, momentum=0.1, affine=True, track_running_stats=True)
    (12): ReLU(inplace=True)
    (13): MaxPool2d(kernel_size=2, stride=2, padding=0, dilation=1, ceil_mode=False)
    (14): Conv2d(128, 256, kernel_size=(3, 3), stride=(1, 1), padding=(1, 1), bias=False)
    (15): BatchNorm2d(256, eps=1e-05, momentum=0.1, affine=True, track_running_stats=True)
    (16): ReLU(inplace=True)
    (17): Conv2d(256, 256, kernel_size=(3, 3), stride=(1, 1), padding=(1, 1), bias=False)
    (18): BatchNorm2d(256, eps=1e-05, momentum=0.1, affine=True, track_running_stats=True)
    (19): ReLU(inplace=True)
    (20): Conv2d(256, 256, kernel_size=(3, 3), stride=(1, 1), padding=(1, 1), bias=False)
    (21): BatchNorm2d(256, eps=1e-05, momentum=0.1, affine=True, track_running_stats=True)
    (22): ReLU(inplace=True)
    (23): MaxPool2d(kernel_size=2, stride=2, padding=0, dilation=1, ceil_mode=False)
    (24): Conv2d(256, 512, kernel_size=(3, 3), stride=(1, 1), padding=(1, 1), bias=False)
    (25): BatchNorm2d(512, eps=1e-05, momentum=0.1, affine=True, track_running_stats=True)
    (26): ReLU(inplace=True)
    (27): Conv2d(512, 512, kernel_size=(3, 3), stride=(1, 1), padding=(1, 1), bias=False)
    (28): BatchNorm2d(512, eps=1e-05, momentum=0.1, affine=True, track_running_stats=True)
    (29): ReLU(inplace=True)
    (30): Conv2d(512, 512, kernel_size=(3, 3), stride=(1, 1), padding=(1, 1), bias=False)
    (31): BatchNorm2d(512, eps=1e-05, momentum=0.1, affine=True, track_running_stats=True)
    (32): ReLU(inplace=True)
    (33): MaxPool2d(kernel_size=2, stride=2, padding=0, dilation=1, ceil_mode=False)
    (34): Conv2d(512, 512, kernel_size=(3, 3), stride=(1, 1), padding=(1, 1), bias=False)
    (35): BatchNorm2d(512, eps=1e-05, momentum=0.1, affine=True, track_running_stats=True)
    (36): ReLU(inplace=True)
    (37): Conv2d(512, 512, kernel_size=(3, 3), stride=(1, 1), padding=(1, 1), bias=False)
    (38): BatchNorm2d(512, eps=1e-05, momentum=0.1, affine=True, track_running_stats=True)
    (39): ReLU(inplace=True)
    (40): Conv2d(512, 512, kernel_size=(3, 3), stride=(1, 1), padding=(1, 1), bias=False)
    (41): BatchNorm2d(512, eps=1e-05, momentum=0.1, affine=True, track_running_stats=True)
    (42): ReLU(inplace=True)
  )
  (classifier): Sequential(
    (0): Linear(in_features=512, out_features=512, bias=True)
    (1): BatchNorm1d(512, eps=1e-05, momentum=0.1, affine=True, track_running_stats=True)
    (2): ReLU(inplace=True)
    (3): Linear(in_features=512, out_features=10, bias=True)
  )
)
Baseline Model Flops: 626927616.000000

==>>[2022-07-16 05:04:17] [Epoch=030/033] [Need: 00:00:00] [learning_rate=0.1000] [Best : Accuracy=81.63, Error=18.37]

==>>[2022-07-16 05:04:36] [Epoch=031/033] [Need: 00:00:39] [learning_rate=0.1000] [Best : Accuracy=82.15, Error=17.85]

==>>[2022-07-16 05:07:46] [Epoch=030/033] [Need: 00:00:00] [learning_rate=0.1000] [Best : Accuracy=86.73, Error=13.27]
…
Prune Stats: {'l1norm': 346, 'l2norm': 160, 'eucl': 208, 'cos': 286}
Final Flop Reduction Rate: 0.3452
Conv Filters Before Pruning: {2: 64, 5: 64, 9: 128, 12: 128, 16: 256, 19: 256, 22: 256, 26: 512, 29: 512, 32: 512, 36: 512, 39: 512, 42: 512}
Conv Filters After Pruning: {2: 42, 5: 42, 9: 128, 12: 115, 16: 186, 19: 256, 22: 207, 26: 415, 29: 373, 32: 415, 36: 373, 39: 336, 42: 336}
Layerwise Pruning Rate: {2: 0.34375, 5: 0.34375, 9: 0.0, 12: 0.1015625, 16: 0.2734375, 19: 0.0, 22: 0.19140625, 26: 0.189453125, 29: 0.271484375, 32: 0.189453125, 36: 0.271484375, 39: 0.34375, 42: 0.34375}
=> network after pruning:
 vgg(
  (feature): Sequential(
    (0): Conv2d(3, 42, kernel_size=(3, 3), stride=(1, 1), padding=(1, 1), bias=False)
    (1): BatchNorm2d(42, eps=1e-05, momentum=0.1, affine=True, track_running_stats=True)
    (2): ReLU(inplace=True)
    (3): Conv2d(42, 42, kernel_size=(3, 3), stride=(1, 1), padding=(1, 1), bias=False)
    (4): BatchNorm2d(42, eps=1e-05, momentum=0.1, affine=True, track_running_stats=True)
    (5): ReLU(inplace=True)
    (6): MaxPool2d(kernel_size=2, stride=2, padding=0, dilation=1, ceil_mode=False)
    (7): Conv2d(42, 128, kernel_size=(3, 3), stride=(1, 1), padding=(1, 1), bias=False)
    (8): BatchNorm2d(128, eps=1e-05, momentum=0.1, affine=True, track_running_stats=True)
    (9): ReLU(inplace=True)
    (10): Conv2d(128, 115, kernel_size=(3, 3), stride=(1, 1), padding=(1, 1), bias=False)
    (11): BatchNorm2d(115, eps=1e-05, momentum=0.1, affine=True, track_running_stats=True)
    (12): ReLU(inplace=True)
    (13): MaxPool2d(kernel_size=2, stride=2, padding=0, dilation=1, ceil_mode=False)
    (14): Conv2d(115, 186, kernel_size=(3, 3), stride=(1, 1), padding=(1, 1), bias=False)
    (15): BatchNorm2d(186, eps=1e-05, momentum=0.1, affine=True, track_running_stats=True)
    (16): ReLU(inplace=True)
    (17): Conv2d(186, 256, kernel_size=(3, 3), stride=(1, 1), padding=(1, 1), bias=False)
    (18): BatchNorm2d(256, eps=1e-05, momentum=0.1, affine=True, track_running_stats=True)
    (19): ReLU(inplace=True)
    (20): Conv2d(256, 207, kernel_size=(3, 3), stride=(1, 1), padding=(1, 1), bias=False)
    (21): BatchNorm2d(207, eps=1e-05, momentum=0.1, affine=True, track_running_stats=True)
    (22): ReLU(inplace=True)
    (23): MaxPool2d(kernel_size=2, stride=2, padding=0, dilation=1, ceil_mode=False)
    (24): Conv2d(207, 415, kernel_size=(3, 3), stride=(1, 1), padding=(1, 1), bias=False)
    (25): BatchNorm2d(415, eps=1e-05, momentum=0.1, affine=True, track_running_stats=True)
    (26): ReLU(inplace=True)
    (27): Conv2d(415, 373, kernel_size=(3, 3), stride=(1, 1), padding=(1, 1), bias=False)
    (28): BatchNorm2d(373, eps=1e-05, momentum=0.1, affine=True, track_running_stats=True)
    (29): ReLU(inplace=True)
    (30): Conv2d(373, 415, kernel_size=(3, 3), stride=(1, 1), padding=(1, 1), bias=False)
    (31): BatchNorm2d(415, eps=1e-05, momentum=0.1, affine=True, track_running_stats=True)
    (32): ReLU(inplace=True)
    (33): MaxPool2d(kernel_size=2, stride=2, padding=0, dilation=1, ceil_mode=False)
    (34): Conv2d(415, 373, kernel_size=(3, 3), stride=(1, 1), padding=(1, 1), bias=False)
    (35): BatchNorm2d(373, eps=1e-05, momentum=0.1, affine=True, track_running_stats=True)
    (36): ReLU(inplace=True)
    (37): Conv2d(373, 336, kernel_size=(3, 3), stride=(1, 1), padding=(1, 1), bias=False)
    (38): BatchNorm2d(336, eps=1e-05, momentum=0.1, affine=True, track_running_stats=True)
    (39): ReLU(inplace=True)
    (40): Conv2d(336, 336, kernel_size=(3, 3), stride=(1, 1), padding=(1, 1), bias=False)
    (41): BatchNorm2d(336, eps=1e-05, momentum=0.1, affine=True, track_running_stats=True)
    (42): ReLU(inplace=True)
  )
  (classifier): Sequential(
    (0): Linear(in_features=336, out_features=512, bias=True)
    (1): BatchNorm1d(512, eps=1e-05, momentum=0.1, affine=True, track_running_stats=True)
    (2): ReLU(inplace=True)
    (3): Linear(in_features=512, out_features=10, bias=True)
  )
)

==>>[2022-07-16 05:29:57] [Epoch=030/160] [Need: 00:00:00] [learning_rate=0.1000] [Best : Accuracy=82.92, Error=17.08]

==>>[2022-07-16 05:30:15] [Epoch=031/160] [Need: 00:37:15] [learning_rate=0.1000] [Best : Accuracy=82.99, Error=17.01]

==>>[2022-07-16 05:30:50] [Epoch=033/160] [Need: 00:37:18] [learning_rate=0.1000] [Best : Accuracy=86.11, Error=13.89]
…
